Submissions/proj4/checkpoint.pt (torch, 751533 bytes, 30 tensors)

ss.0.weight f4 [6, 1, 5, 5]
0.18579856 -0.49125057 -0.2559597 0.31680632 -0.17516842 -0.58730894 -0.6888361 0.017395953
0.7809862 0.48655203 -0.38483232 -0.29359072 -0.40239176 0.5146938 0.28969002 0.0017031644
-0.10363071 -0.13328196 0.016554214 0.113620885 0.2954041 -0.019593868 -0.06679506 0.04448283
-0.12142431 -0.3721611 -0.48724398 -0.013351583 0.15325141 0.1427408 0.17580274 0.03722405
0.38963148 0.13789289 -0.2079864 -0.05962662 0.20945457 0.22061127 -0.08384522 -0.11566102
-0.3082324 0.09902296 0.2494247 0.104685195 0.015994832 -0.52196884 -0.23021618 -0.1485374
-0.1692054 -0.0037356177 0.0070455973 0.18209201 0.1693843 -0.48205906 -0.27659464 0.0992884
0.11067014 0.2781549 -0.3198227 -0.38377124 -0.20052885 0.41486883 0.54512584 0.03671787
-0.61905104 -0.34930456 0.122216284 0.58946025 0.49394104 -0.36642146 -0.7770777 -0.33576432
0.10123204 0.14422312 -0.048228245 -0.41425234 -0.7667782 -0.13802025 0.2513666 0.19896926
-0.4745204 -0.4409143 0.3230421 -0.0772432 -0.33875597 -0.2607235 -0.20323491 0.25608823
0.04470127 -0.43052232 0.25140136 0.5879894 0.4397229 0.166987 0.45285767 0.1476343
-0.07144573 -0.07381522 -0.38738725 0.052376345 -0.38078004 0.079095915 0.07485607 0.203616
-0.045292184 0.05992924 0.12785323 0.38799676 0.25572085 -0.4979513 0.49241334 0.30006906
0.42733577 -0.18292566 -0.51080215 0.04915545 0.47790387 0.18440813 -0.51699525 -0.7837057
-0.31729218 0.4322161 -0.5453198 -1.2066392 -0.22430876 0.0023104448 -0.1287218 -0.20018424
-0.30137536 -0.037822053 -0.119035594 0.027987443 -0.16954276 -0.061629117 -0.32964906 -0.067425005
0.1230537 0.16963881 -0.17686664 0.11803589 -0.08828855 0.19910677 0.22553265 0.22094606
0.26262203 0.19515228 0.09940953 -0.02306517 0.16774397 0.086809665
00000000: fa41 3e3e 3285 fbbe 260d 83be 7034 a23e
00000010: 5a5f 33be e159 16bf 9057 30bf f581 8e3c
00000020: b6ee 473f 591d f93e be08 c5be 8651 96be
00000030: 4b06 cebe f9c2 033f 4052 943e b73c df3a
00000040: 563c d4bd 117b 08be b49c 873c 11b2 e83d
00000050: 353f 973e 5283 a0bc d9cb 88bd a133 363d
00000060: 4fad f8bd e68b bebe 0b78 f9be 99c0 5abc
00000070: f0ed 1c3e a52a 123e a205 343e 3f78 183d
00000080: c77d c73e cb33 0d3e 63fa 54be 0b3b 74bd
00000090: 427b 563e ece7 613e 0bb7 abbd afdf ecbd
000000a0: a3d0 9dbe 8dcc ca3d 3069 7f3e 3165 d63d
000000b0: 9807 833c c09f 05bf cabd 6bbe 301a 18be
000000c0: 2e44 2dbe 44d1 74bb c1de e63b 5476 3a3e
000000d0: 1473 2d3e 72d0 f6be d09d 8dbe b757 cb3d
000000e0: 07a7 e23d 526a 8e3e cdbf a3be aa7d c4be
000000f0: 6f57 4dbe b069 d43e 5e8d 0b3f 7a65 163d
00000100: 217a 1ebf 0cd8 b2be 884c fa3d dee6 163f
00000110: d7e5 fc3e 989b bbbe 90ee 46bf 4de9 abbe
00000120: be52 cf3d 3aaf 133e fb8a 45bd e218 d4be
00000130: 934b 44bf 2e55 0dbe 1fb3 803e 99be 4b3e
00000140: 56f4 f2be 85bf e1be c665 a53e af31 9ebd
00000150: 6c71 adbe 8d7d 85be d01c 50be ff1d 833e
00000160: ae18 373d 6c6d dcbe aeb7 803e 7986 163f
00000170: 5c23 e13e a4fe 2a3e f6dc e73e 722d 173e
00000180: 2452 92bd 6f2c 97bd 9f57 c6be 9488 563d
00000190: 9af5 c2be 0afd a13d 244e 993d b680 503e
000001a0: 4c84 39bd 5d78 753d f5eb 023e 83a7 c63e
000001b0: d8ed 823e 79f3 febe 9a1d fc3e a7a2 993e
000001c0: c1cb da3e dd50 3bbe eec3 02bf 3a57 493d
000001d0: d1af f43e 7cd5 3c3e cd59 04bf f0a0 48bf
000001e0: 1f74 a2be 6e4b dd3e 149a 0bbf 2773 9abf
000001f0: 32b1 65be d56a 173b a6cf 03be 19fd 4cbe
00000200: df4d 9abe 4ceb 1abd efc8 f3bd ec45 e53c
00000210: 9e9c 2dbe d06e 7cbd c3c7 a8be 1f16 8abd
00000220: 9403 fc3d ccb5 2d3e 871c 35be cdbc f13d
00000230: a1d0 b4bd a5e2 4b3e 08f2 663e af3f 623e
00000240: 6576 863e 00d6 473e 3997 cb3d 2bf3 bcbc
00000250: 13c5 2b3e 44c9 b13d

ss.0.bias f4 [6]
-0.15586685 -0.15604587 -0.10849826 -0.07688727 -0.054141693 -0.16049817
00000000: 8f9b 1fbe 7dca 1fbe 5634 debd 1377 9dbd
00000010: aec3 5dbd a259 24be

ss.3.weight f4 [16, 6, 5, 5]
-0.871529 -1.0110236 0.06873073 0.0919893 -0.44422325 -0.5700512 -1.3452398 0.028692024
0.26559454 -0.2341406 -0.63368016 -1.0486113 0.2813818 0.24063891 -0.17654122 -0.32442766
-0.6585848 0.31843087 0.3169773 -0.43239382 0.14600454 -0.34021592 0.36913648 0.23463702
-0.3454649 -0.041781012 -0.40293038 -0.5251138 -0.0289035 -0.11349748 -0.31859484 -0.50806665
-0.30436838 0.19193013 0.14576484 -0.3032882 -0.70195657 -0.21454555 0.22941026 0.044739675
-0.19451934 -0.50623757 -0.21441402 0.22131707 -0.11074507 -0.018181356 -0.2908446 -0.25886205
0.2544034 -0.20806816 0.105235785 -0.13130593 -0.6593352 0.29987657 0.26739484 -0.08693978
-0.010691794 -0.67812955 0.21639375 0.13911384 -0.08821503 0.16705735 -0.052316286 0.24537954
0.119480096 0.0071922145 0.6507834 -0.17514366 0.2070973 -0.015731627 -0.015147142 0.19790217
-0.62051976 -0.08494793 -0.27723727 -0.5773782 -0.7624801 -1.0831684 -0.42952198 -0.17721394
-0.024574129 -0.79241216 -0.48647982 0.09374761 -0.20533936 0.19356795 -0.22316685 -0.19121024
0.3414502 -0.19589789 -0.07536658 -0.15751445 -0.015183743 0.26540765 -0.16069968 -0.29441866
-0.06643283 0.13346128 0.3557929 -0.26892838 0.22772937 -0.008377131 -0.5055596 0.273913
0.5491513 0.1425642 -0.23270664 -0.7826299 0.47069436 0.53745055 -0.013514041 -0.9027089
-0.6037332 0.6059925 0.045651317 -0.30568123 -0.22077271 -0.6271661 -0.10059791 -0.04847513
-0.4034237 -0.4380708 -1.1245222 -0.24851613 -0.041643076 -0.32127506 -1.0904913 -0.97582483
-0.058483347 0.023755737 0.019792067 -0.6709952 -0.66451365 -0.11661203 -0.14531334 0.26657706
-0.26549047 -0.40062135 -0.00400323 0.13064708 -0.09238884 -0.07273979 -0.15822811 0.12370718
0.4312617 -0.09855304 0.26838046 0.13738368 0.29802153 0.28771532 0.4700891 -0.15391487
-1.1535408 0.115941234 0.25890222 -0.007446885 0.30467364 -0.7724418 -0.60153896 0.35377565
-0.31654185 0.1869611 0.17255834 -1.4813632 -0.11615404 -0.029277941 0.22814564 0.23839533
-1.187479 -0.4373116 0.22465968 0.15656714 0.13745145 -0.33714777 -0.1702338 0.09734752
0.31022745 -0.20012295 -0.6300433 -0.011756196 0.18484524 -0.11459853 -0.049084865 -0.5806684
-0.26020682 0.20917316 -0.2772011 0.070829324 -0.4357643 -0.12457836 0.37765735 0.14127891
0.15628327 -0.26719588 -0.13668542 0.116843395 0.06553753 0.33418053 -0.115387276 -0.03791867
-0.7562494 0.8034236 0.37290147 -0.58399516 0.14154217 -0.3692179 0.13982713 0.744211
-0.21676789 -0.13913031 0.22351363 -0.112245984 0.20401673 -0.40127444 -0.36484107 0.15509401
-0.23853333 0.22022593 -0.1573883 -0.14841677 -0.048118167 -0.4405018 0.061275084 -0.0012517207
0.074741796 0.58299106 0.26796082 0.13032134 0.24141832 0.00018934584 0.040621646 -0.4532292
-0.6215188 -0.08871116 0.43080643 0.28959355 0.09248069 -0.41362378 -0.6159704 0.35528624
0.28723672 0.1694205 0.025953624 -0.5435805 0.25466776 0.11281715 0.30894879 0.3745495
-0.39098704 -0.18531409 -0.4522487 -0.79775196 0.10346121 0.05360862 -0.016244411 0.01767795
00000000: 861c 5fbf 3969 81bf b2c2 8c3d e364 bc3d
00000010: 3b71 e3be e0ee 11bf d130 acbf 890b eb3c
00000020: 02fc 873e 8ec2 6fbe dd38 22bf e538 86bf
00000030: 4611 903e 0c6a 763e 39c7 34be 621b a6be
00000040: 0399 28bf 5f09 a33e d94a a23e b962 ddbe
00000050: 3782 153e c830 aebe 75ff bc3e b044 703e
00000060: c6e0 b0be 9122 2bbd e44c cebe dc6d 06bf
00000070: 08c7 ecbc 5e71 e8bd dd1e a3be a810 02bf
00000080: 2cd6 9bbe 5589 443e 6143 153e 9748 9bbe
00000090: 6db3 33bf d4b1 5bbe 86ea 6a3e f340 373d
000000a0: 1430 47be c998 01bf 598f 5bbe f1a0 623e
000000b0: 50ce e2bd 11f1 94bc 95e9 94be 9189 84be
000000c0: 2a41 823e d20f 55be dc85 d73d 1075 06be
000000d0: 31ca 28bf 6c89 993e fae7 883e 7c0d b2bd
000000e0: a22c 2fbc e699 2dbf 5396 5d3e dc73 0e3e
000000f0: 15aa b4bd 1511 2b3e 9a49 56bd c644 7b3e
00000100: fbb1 f43d abac eb3b be99 263f dc58 33be
00000110: 5111 543e 9ddf 80bc b82b 78bc dea6 4a3e
00000120: 62da 1ebf 2ef9 adbd 0bf2 8dbe 0fcf 13bf
00000130: e531 43bf 43a5 8abf 4eea dbbe 9277 35be
00000140: af4f c9bc 86db 4abf e213 f9be bffe bf3d
00000150: 7b44 52be ad36 463e da85 64be 9ecc 43be
00000160: 90d2 ae3e 7599 48be cb59 9abd 784b 21be
00000170: 3cc5 78bc 83e3 873e 758e 24be 0bbe 96be
00000180: f00d 88bd 13aa 083e 7d2a b63e fbb0 89be
00000190: e331 693e 3c40 09bc 5b6c 01bf 533e 8c3e
000001a0: 2e95 0c3f 5afc 113e a64a 6ebe 6f5a 48bf
000001b0: dafe f03e 5c96 093f ff69 5dbc ee17 67bf
000001c0: 428e 1abf 5322 1b3f e0fc 3a3d 4082 9cbe
000001d0: 3e12 62be f58d 20bf 4706 cebd dc8d 46bd
000001e0: 8d8d cebe d14a e0be 58f0 8fbf 037b 7ebe
000001f0: ee91 2abd 2a7e a4be 3895 8bbf a8cf 79bf
00000200: 3c8c 6fbd 649b c23c f922 a23c 57c6 2bbf
00000210: 911d 2abf 4ad2 eebd 05cd 14be ca7c 883e
00000220: 5eee 87be 3e1e cdbe 872d 83bb 59c8 053e
00000230: 5c36 bdbd 99f8 94bd 8d06 22be 315a fd3d
00000240: 55ce dc3e 2dd6 c9bd 2a69 893e 4fae 0c3e
00000250: 4796 983e 6c4f 933e 85af f03e dc9b 1dbe
00000260: 3aa7 93bf 9972 ed3d d58e 843e 0005 f4bb
00000270: 2ffe 9b3e bfbe 45bf 75fe 19bf 1522 b53e
00000280: c611 a2be bb72 3f3e 22b3 303e 4f9d bdbf
00000290: 2be2 edbd 4bd8 efbc 039f 693e e81d 743e
000002a0: 50ff 97bf 4ee7 dfbe 300d 663e 2353 203e
000002b0: 13c0 0c3e a29e acbe c551 2ebe 235e c73d
000002c0: 22d6 9e3e 08ed 4cbe 854a 21bf 0f9d 40bc
000002d0: 1248 3d3e a2b2 eabd 360d 49bd afa6 14bf
000002e0: d439 85be 7d31 563e 4ded 8dbe f70e 913d
000002f0: 801c dfbe f022 ffbd 4e5c c13e 6bab 103e
00000300: b908 203e e6cd 88be 43f7 0bbe 974b ef3d
00000310: 8a38 863d b619 ab3e 2a50 ecbd 9b50 1bbd
00000320: 9099 41bf 2bad 4d3f f1ec be3e b580 15bf
00000330: 6ef0 103e 210a bdbe d82e 0f3e 9d84 3e3f
00000340: 67f8 5dbe 2d78 0ebe c2e0 643e 39e1 e5bd
00000350: c3e9 503e d873 cdbe 73cc babe f7d0 1e3e
00000360: 1542 74be e882 613e 662a 21be 91fa 17be
00000370: 8e17 45bd 7489 e1be 95fb 7a3d c710 a4ba
00000380: 3a12 993d e73e 153f 2932 893e f572 053e
00000390: 5d36 773e 238b 4639 e262 263d a80d e8be
000003a0: db1b 1fbf 32ae b5bd a992 dc3e 9b45 943e
000003b0: 8466 bd3d 7fc6 d3be 3cb0 1dbf 14e8 b53e
000003c0: b110 933e 917c 2d3e b29c d43c 1728 0bbf
000003d0: d063 823e ae0c e73d 892e 9e3e f4c4 bf3e
000003e0: 742f c8be fac2 3dbe 248d e7be 7939 4cbf
000003f0: 79e3 d33d b694 5b3d 0013 85bc 59d1 903c

ss.3.bias f4 [16]
-0.1191024 -0.44232273 -0.43603304 -0.10245098 -0.40313637 -0.1407044 -0.49699274 -0.4688911
0.1292562 0.02523266 -0.35142937 0.18087147 -0.6326846 -0.0057483157 -0.07359932 0.2302556
00000000: f6eb f3bd 2078 e2be b93f dfbe d2d1 d1bd
00000010: e467 cebe d014 10be d575 febe 7f12 f0be
00000020: bd5b 043e b9b4 ce3c 8dee b3be 5f36 393e
00000030: 9ef7 21bf 5e5c bcbb 3ebb 96bd 20c8 6b3e

ss.6.weight f4 [120, 16, 5, 5]
-0.037816655 -0.019169569 0.003957481 -0.010311753 -0.03406514 -0.04163136 0.028492624 -0.07058609
0.02093219 0.013851468 -0.046949822 0.029326137 -0.0017080057 -0.05079271 -0.060456973 -0.07643922
-0.005777159 -0.017245376 0.021172784 -0.044630658 0.034085035 -0.0532891 -0.048291404 -0.024358511
-0.057177093 -0.05255211 -0.02814198 0.0036715844 -0.07255768 -0.051701378 -0.03879395 -0.07001461
0.0056859883 -0.030089628 -0.07829828 -0.04084748 -0.054864563 -0.06826186 -0.021391787 -0.022203166
-0.010610789 0.013239655 0.024841662 0.027976641 -0.0410039 0.003253927 -0.021022368 -0.06621901
0.014516605 -0.054748423 -0.0059396266 -0.019948868 -0.025836488 0.006972755 -0.018918196 -0.06286498
-0.04544909 -0.04856131 -0.015939977 -0.063026726 -0.049575683 -0.012404129 -0.047770817 -0.005668724
0.0069099143 -0.077865645 -0.024188094 -0.01815087 0.017533168 0.012055949 0.00025909222 -0.015758608
0.0048506972 -0.016730957 -0.059415903 -0.07509139 -0.04445884 -0.071454555 -0.049152873 -0.034505572
-0.04809217 -0.04893197 0.010450387 0.0072136694 -0.0111081265 -0.0021716668 0.017441273 0.014954081
-0.016873246 -0.002569761 -0.065406986 0.013586781 0.015358053 -0.017138295 -0.04923637 -0.043839343
-0.067890525 -0.060326587 -0.027517011 -0.036335688 -0.054008894 -0.0326957 -0.03402665 -0.013288084
0.004580658 0.018442608 -0.07050422 -0.018351167 -0.04423873 -0.07948867 -0.06989428 -0.01278892
0.029531864 0.008297704 -0.017853554 0.0091576595 -0.016568711 -0.012909061 -0.028121812 0.01084455
0.006260895 -0.040964168 0.00678638 -0.027489256 -0.020344965 0.0034460882 -0.02749948 -0.002393256
-0.003199619 -0.008789314 -0.029065032 -0.048297923 -0.060298834 -0.0722061 -0.05085594 -0.032160453
0.016006907 -0.04514271 -0.03355766 -0.064499155 0.011596685 -0.048317987 0.014967779 0.02184967
-0.03798605 -0.0739007 -0.01210823 0.02412733 -0.04597549 -0.021821212 0.016230624 -0.053330343
-0.03647958 -0.069084205 -0.008287189 -0.014845089 -0.03398531 0.00022539814 0.021946985 -0.044244524
-0.04710965 -0.016239222 0.009485055 -0.055615064 -0.040384263 -0.011815091 -0.024880784 -0.02842654
0.031640217 -0.019716166 -0.021973634 0.029461296 -0.006882771 -0.033850115 0.0004309916 -0.010476784
-0.03669534 -0.0034025596 -0.02310551 -0.05682088 -0.041859332 -0.041037295 -0.0641355 -0.05694731
0.012621803 -0.007362164 -0.06682908 -0.050858248 0.0004472005 0.023994386 -0.036309414 -0.040489767
-0.046227567 -0.05238054 -0.04165735 0.02842798 -0.059886776 -0.031610318 -0.06003208 -0.010826203
-0.010185578 -0.046943154 -0.04202712 0.00010294391 -0.03911097 -0.056857474 -0.037559886 -0.054465108
-0.056298364 -0.054910507 0.009686634 -0.058207385 -0.01156196 -0.043922536 -0.021704372 -0.028672315
0.013745778 -0.04188259 0.00044451546 -0.014866718 0.012800579 -0.077221796 0.027045676 0.017621702
0.01702826 -0.04252754 -0.05692531 -0.027523 0.027148284 -0.06409703 -0.056704212 0.0100790365
-0.0011636022 0.00022630508 -0.0029276905 -0.042018972 0.0027469571 -0.07219909 -0.019027956 -0.061169315
0.032018546 -0.048386864 0.00066300895 -0.05653296 -0.030574905 -0.05237793 0.018218704 -0.013204722
-0.034551486 -0.058724 -0.07535254 -0.038359314 -0.0214112 0.0045222947 -0.03005706 -0.0665422
00000000: a3e5 1abd 8009 9dbc c2ad 813b a0f2 28bc
00000010: e387 0bbd a585 2abd 5d69 e93c 718f 90bd
00000020: fc79 ab3c 45f1 623c 754e 40bd 5e3d f03c
00000030: 29df dfba 040c 50bd bba1 77bd 2a8c 9cbd
00000040: 524e bdbb 2d46 8dbc 8c72 ad3c a3ce 36bd
00000050: c09c 0b3d ac45 5abd 35cd 45bd 808b c7bc
00000060: 8732 6abd e240 57bd 028a e6bc f79e 703b
00000070: 1f99 94bd d3c4 53bd 68e6 1ebd d263 8fbd
00000080: 8751 ba3b 867e f6bc d95a a0bd b04f 27bd
00000090: aab9 60bd e0cc 8bbd d43d afbc 6ae3 b5bc
000000a0: e0d8 2dbc 23eb 583c be80 cb3c 452f e53c
000000b0: b5f3 27bd d63f 553b 1a37 acbc d59d 87bd
000000c0: 0ed7 6d3c e23f 60bd 33a1 c2bb cf6b a3bc
000000d0: 0ba7 d3bc b57b e43b 55fa 9abc 5bbf 80bd
000000e0: d328 3abd 39e8 46bd 8e94 82bc 2814 81bd
000000f0: df0f 4bbd b03a 4bbc 55ab 43bd b4c0 b9bb
00000100: 906c e23b 0678 9fbd 1c26 c6bc 22b1 94bc
00000110: b8a1 8f3c 5186 453c c5d6 8739 3218 81bc
00000120: 99f2 9e3b 5c0f 89bc 175e 73bd 84c9 99bd
00000130: 791a 36bd c456 92bd 8654 49bd b755 0dbd
00000140: 4cfc 44bd e46c 48bd 1a38 2b3c a560 ec3b
00000150: dcfe 35bc 8652 0ebb 00e1 8e3c f601 753c
00000160: c339 8abc 6f69 28bb 19f4 85bd 179b 5e3c
00000170: 58a0 7b3c 9c65 8cbc 13ac 49bd e290 33bd
00000180: 300a 8bbd 0319 77bd 5b6b e1bc bbd4 14bd
00000190: 6e38 5dbd edeb 05bd 875f 0bbd 44b6 59bc
000001a0: 5819 963b f414 973c 8464 90bd 3055 96bc
000001b0: ac33 35bd f5ca a2bd bb24 8fbd 9e88 51bc
000001c0: cfec f13c 18f3 073c 9e41 92bc 020a 163c
000001d0: 1bbb 87bc 8780 53bc b75f e6bc 57ad 313c
000001e0: 3228 cd3b 0bca 27bd 4860 de3b 2631 e1bc
000001f0: 7caa a6bc c4d7 613b 9746 e1bc 2cd8 1cbb
00000200: b3b0 51bb 0e01 10bc ca19 eebc 0bd4 45bd
00000210: e9fb 76bd cbe0 93bd 514e 50bd aeba 03bd
00000220: eb20 833c 90e7 38bd c273 09bd 2218 84bd
00000230: 0600 3e3c 15e9 45bd 6a3b 753c 14fe b23c
00000240: 4397 1bbd 4059 97bd 9961 46bc aea6 c53c
00000250: cc50 3cbd 66c2 b2bc 16f6 843c eb70 5abd
00000260: 9d6b 15bd 057c 8dbd fdc6 07bc d138 73bc
00000270: 2e34 0bbd da58 6c39 2aca b33c bf39 35bd
00000280: 0cf6 40bd 1e08 85bc 3467 1b3c 9fcc 63bd
00000290: f869 25bd 1594 41bc c9d2 cbbc c6de e8bc
000002a0: 2c99 013d cc83 a1bc 0d02 b4bc d158 f13c
000002b0: de88 e1bb 6ba6 0abd b7f6 e139 d1a6 2bbc
000002c0: da4d 16bd 7afd 5ebb c447 bdbc 03bd 68bd
000002d0: b174 2bbd b916 28bd 7959 83bd 9541 69bd
000002e0: aecb 4e3c 4f3e f1bb afdd 88bd bd50 50bd
000002f0: 3c76 ea39 e08f c43c 2eb9 14bd 99d8 25bd
00000300: 1e59 3dbd fa8c 56bd e6a0 2abd cce1 e83c
00000310: d64b 75bd d279 01bd 33e4 75bd 6360 31bc
00000320: 69e1 26bc 7747 40bd a124 2cbd 97e3 d738
00000330: d332 20bd 62e3 68bd 65d8 19bd ce16 5fbd
00000340: 1d99 66bd d7e9 60bd b0b4 1e3c de6a 6ebd
00000350: 606e 3dbc 1ee8 33bd 5ecd b1bc 34e2 eabc
00000360: f935 613c 148d 2bbd db0d e939 8993 73bc
00000370: 85b9 513c 7626 9ebd e58e dd3c 635b 903c
00000380: d97e 8b3c 5c31 2ebd 842a 69bd ea77 e1bc
00000390: 1466 de3c 4e45 83bd ad42 68bd 8b22 253c
000003a0: 0384 98ba 4f4c 6d39 7fde 3fbb 161c 2cbd
000003b0: 4b06 343b 1edd 93bd 84e0 9bbc ad8c 7abd
000003c0: e125 033d 4e31 46bd c7cd 2d3a 1b8f 67bd
000003d0: 3978 fabc 3e8a 56bd 643f 953c 9e58 58bc
000003e0: dc85 0dbd 9488 70bd 6f52 9abd a81e 1dbd
000003f0: 8a66 afbc c22f 943b 393a f6bc 4747 88bd

ss.6.bias f4 [120]
-0.038101032 -0.01717778 -0.2958736 -0.040488522 -0.03865745 -0.15709735 0.35572094 -0.033817504
0.025239281 0.16150665 -0.07914061 -0.053814586 -0.06029222 -0.12685317 -0.061310656 0.034686208
-0.0569957 0.5083425 -0.057005126 0.21436943 -0.4122025 -0.028423524 0.10858291 -0.06723354
0.19469611 -0.4095066 0.035088517 -0.52955043 -0.5846977 -0.019360108 -0.08937381 0.16957003
-0.044888645 -0.3567972 -0.04687479 -0.7529962 -0.20113541 0.18054499 -0.0674321 -0.0077261897
0.006363536 0.20804901 -0.049344018 0.042465538 -0.057718094 -0.32800803 -0.058173 -0.2593247
-0.27705994 -0.050760705 0.0153078735 -0.02153251 -0.057931527 0.088461794 -0.21175984 0.09647294
-0.060169883 -0.047584917 -0.048039943 0.23238935 0.008046291 -0.2238414 -0.0013727134 0.24832223
0.08333022 -0.011041029 -0.045429625 -0.20620435 -0.68321615 0.7093703 0.12223423 -0.054288454
0.07446782 -0.007947699 0.27985185 -0.06699391 -0.050079625 0.41007078 0.060675077 0.12650955
-0.07077099 -0.5079319 -0.3859518 0.1101083 -0.05729638 -0.27087042 0.000274765 -0.03908336
-0.03149916 -0.12072889 -0.18581706 -0.03778987 0.11915442 0.056052882 -0.14022006 0.10221001
-0.06665608 0.25953624 0.08238838 -0.09878836 -0.004575334 -0.15212518 -0.17907824 -0.0479465
-0.06562387 0.3991798 0.1640728 -0.28273124 0.3054495 0.46126774 0.046730485 -0.063713536
-0.02436562 -0.12263051 0.38410264 0.24592987 0.1757088 0.117944896 -0.3341054 0.12809515
00000000: d40f 1cbd 6ab8 8cbc bf7c 97be 4bd7 25bd
00000010: 4657 1ebd 21de 20be 0e21 b63e 3984 0abd
00000020: 9cc2 ce3c 0062 253e 7914 a2bd af6c 5cbd
00000030: faf4 76bd cce5 01be e220 7bbd 2013 0e3d
00000040: 5374 69bd bc22 023f 357e 69bd a983 5b3e
00000050: 350c d3be 73d8 e8bc b760 de3d bdb1 89bd
00000060: 6b5e 473e d9aa d1be fab8 0f3d 9e90 07bf
00000070: c0ae 15bf 1799 9ebc 9e09 b7bd c4a3 2d3e
00000080: 28dd 37bd 1fae b6be c8ff 3fbd 5cc4 40bf
00000090: 71f6 4dbe c9e0 383e d719 8abd fa2b fdbb
000000a0: 3685 d03b cd0a 553e f41c 4abd 58f0 2d3d
000000b0: cf69 6cbd abf0 a7be d046 6ebd 35c6 84be
000000c0: cdda 8dbe 75ea 4fbd e0cd 7a3c f264 b0bc
000000d0: 9c49 6dbd 752b b53d 92d7 58be 9b93 c53d
000000e0: b274 76bd 67e8 42bd 88c5 44bd 79f7 6d3e
000000f0: 97d4 033c ae36 65be 9eec b3ba 2f48 7e3e
00000100: 09a9 aa3d 6fe5 34bc 6a14 3abd 3c27 53be
00000110: 41e7 2ebf 4b99 353f f155 fa3d 925d 5ebd
00000120: 9682 983d 1137 02bc be48 8f3e 1a34 89bd
00000130: 4b20 4dbd ccf4 d13e 6e86 783d b88b 013e
00000140: 61f0 90bd d307 02bf 799b c5be 7680 e13d
00000150: 9caf 6abd 87af 8abe 560e 9039 e015 20bd
00000160: 4305 01bd b540 f7bd d446 3ebe 8dc9 1abd
00000170: 3c07 f43d b597 653d d995 0fbe 7b53 d13d
00000180: fc82 88bd efe1 843e 3dbb a83d 8d51 cabd
00000190: afec 95bb b4c6 1bbe 4960 37be 8d63 44bd
000001a0: cf65 86bd 4b61 cc3e b302 283e 26c2 90be
000001b0: e063 9c3e 492b ec3e 7768 3f3d 3e7c 82bd
000001c0: 699a c7bc b425 fbbd 1aa9 c43e 0ad5 7b3e
000001d0: 02ed 333e 188d f13d dd0f abbe 602b 033e

ss.9.weight f4 [84, 120]
-0.059784368 0.13683875 -0.15190384 -0.0802462 0.053566784 -0.20174912 -0.14239474 -0.10646878
-0.03381592 -0.26041391 0.042713616 0.068152994 0.05266042 0.21434352 0.059223585 -0.27771828
0.03543022 -0.51708424 0.030920716 -0.15215835 -0.029727025 0.04500413 0.14888494 -0.037663892
0.12943105 -0.34414595 0.051171776 -0.013682988 0.080965176 -0.030224077 -0.10333206 -0.40662038
-0.6073234 -0.22375739 -0.0273201 0.11785942 -0.2808441 0.05192166 -0.0854145 -0.049017932
-0.35164303 -0.31449056 -0.08592997 -0.5685708 -0.0028848243 0.48441222 -0.07211347 -0.2748108
-0.2251868 0.051411454 0.024566725 0.049796797 -0.6165513 -0.3426931 -0.1663498 -0.05174214
0.3017922 0.029937273 0.054787897 -0.501388 0.014160792 -0.3930743 -0.06567937 -0.2664337
-0.4315076 0.04419677 -0.0431687 -0.04108826 0.39428118 0.21098836 -0.4829383 -0.07155562
-0.4593137 0.01229258 -0.1923473 -0.079787895 -0.0063648107 -0.79148835 -0.48841456 -0.22245456
0.007510953 0.6002709 -0.3649882 -0.33596447 0.02961947 -0.4600591 0.017410401 -0.045138054
0.0133241685 -0.5387934 0.3408311 0.06717231 -0.20865043 0.44516522 -0.08958191 -0.12240146
-0.06836725 -0.3572236 -0.24374805 -0.1215304 -0.048129417 -0.005004864 -0.22190228 -0.03311909
-0.078469716 -0.67227244 -0.67372274 -0.19575137 -0.2111594 -0.30906156 -0.27204046 0.05367035
-0.38226545 0.24504408 -0.246077 -0.19284603 -0.4793647 0.024938278 0.0482789 -0.30722672
0.012968799 -0.11511596 0.1467816 -0.01205588 0.02729382 0.1390218 0.30860925 0.084323496
-0.062238473 -0.1274058 -0.03814847 0.08651439 0.011756774 -0.052146398 -0.12496888 -0.3636108
0.026374968 -0.3193842 -0.018286586 0.05227008 -0.019836023 0.26527536 0.11336565 0.11125123
0.11644208 -0.340455 0.37349463 0.087313384 -0.2051662 0.05243505 -0.10628603 -0.75296193
-0.18643576 -0.32174653 0.029825982 0.2705424 -0.21945827 -0.43717095 -0.09367597 -0.004886579
-0.86339444 -0.3525527 -0.058234464 0.43044442 -0.048740506 -0.37654087 0.010116325 -0.29089028
-0.41065365 0.058693387 -0.50703245 -0.016010545 0.28763697 -0.23308812 -0.5661237 0.5317753
0.005149172 -0.01392786 -0.0043595084 -0.09986184 0.05585871 0.11865047 0.035615217 0.14876288
-0.03309809 -0.026854316 -0.0022924077 -0.069298044 -0.07684787 0.14215185 -0.6366465 0.0048931628
-0.21598679 -0.67116654 0.1514185 -0.013768269 -0.015404141 -0.5020656 -0.4605928 0.35837153
0.030538827 -0.15137164 -0.33512965 -0.27271083 -0.057283707 -0.16513225 -0.0021745195 0.03252645
-0.023643536 0.16401887 -0.24889961 0.04774342 0.7089551 -0.43361026 -0.059741072 -0.4782668
-0.053397533 -0.16356874 -0.3382513 -0.1920663 0.061850812 -0.18049692 -0.56071466 -0.028609317
-0.051231768 -0.07606842 -0.18083116 0.48734564 -0.41710928 0.060409773 -0.1361458 0.0630172
-0.12657331 -0.28045207 -0.10973553 0.28412193 -0.44556865 -0.34282994 0.3404454 0.24171704
0.04777143 -0.28087744 -0.19414018 0.10062369 -0.09614863 -0.12257898 0.29381403 -0.06671395
-0.13094702 0.21207991 0.061238706 0.020228706 0.019602625 0.14506413 -0.06309611 -0.07779005
00000000: 74e0 74bd 751f 0c3e ae8c 1bbe 1f58 a4bd
00000010: d868 5b3d 5297 4ebe edcf 11be 4e0c dabd
00000020: 9082 0abd f954 85be 79f4 2e3d cc93 8b3d
00000030: 74b2 573d de7c 5b3e 6e94 723d 1731 8ebe
00000040: 471f 113d a25f 04bf 714d fd3c 66cf 1bbe
00000050: 1786 f3bc 4056 383d 4b75 183e 7445 1abd
00000060: 9389 043e e633 b0be 7f99 513d 9c2e 60bc
00000070: 12d1 a53d 7c98 f7bc c29f d3bd 8c30 d0be
00000080: 8c79 1bbf a820 65be 67ce dfbc 4860 f13d
00000090: ccca 8fbe ceab 543d cced aebd 07c7 48bd
000000a0: 8e0a b4be e804 a1be 0dfc afbd db8d 11bf
000000b0: 520f 3dbb e104 f83e 3ab0 93bd 00b4 8cbe
000000c0: 5e97 66be d194 523d 2840 c93c baf7 4b3d
000000d0: 4ed6 1dbf 7875 afbe 9a57 2abe 91ef 53bd
000000e0: 8284 9a3e 033f f53c 4669 603d f75a 00bf
000000f0: ab02 683c 0941 c9be e882 86bd ff69 88be
00000100: 90ee dcbe ac07 353d aad1 30bd 2a4c 28bd
00000110: 39df c93e 550d 583e b043 f7be c18b 92bd
00000120: 2a2b ebbe d166 493c b1f6 44be d667 a3bd
00000130: e78f d0bb fb9e 4abf 7911 fabe 21cb 63be
00000140: 711e f63b 5bab 193f bcdf babe 8903 acbe
00000150: 88a4 f23c de8c ebbe 42a0 8e3c aee2 38bd
00000160: 9d4d 5a3c 5dee 09bf 6a81 ae3e a391 893d
00000170: 75a8 55be b2ec e33e b876 b7bd 9ead fabd
00000180: 2104 8cbd 03e6 b6be 1799 79be eee4 f8bd
00000190: 5a23 45bd d8ff a3bb 5a3a 63be e2a7 07bd
000001a0: bbb4 a0bd 0c1a 2cbf 1879 2cbf 0c73 48be
000001b0: 2b3a 58be 513d 9ebe e348 8bbe 71d5 5b3d
000001c0: 4cb8 c3be d6ec 7a3e 9cfb 7bbe 6e79 45be
000001d0: 4a6f f5be 5c4b cc3c 19c0 453d d24c 9dbe
000001e0: 167b 543c ebc1 ebbd ea4d 163e 0786 45bc
000001f0: 4a97 df3c bb5b 0e3e 0802 9e3e ccb1 ac3d
00000200: c5ed 7ebd ab76 02be 9241 1cbd 752e b13d
00000210: 7c9f 403c 7697 55bd afef ffbd 322b babe
00000220: 5110 d83c 5386 a3be c0cd 95bc 2719 563d
00000230: 287f a2bc 2cd2 873e 402c e83d afd7 e33d
00000240: 2f79 ee3d 1e50 aebe b03a bf3e 5cd1 b23d
00000250: 1717 52be 23c6 563d 7dac d9bd 1dc2 40bf
00000260: 04e9 3ebe f6bb a4be 9e55 f43c 8984 8a3e
00000270: abb9 60be dfd4 dfbe 30d9 bfbd 981f a0bb
00000280: 6b07 5dbf ca81 b4be 4387 6ebd 3663 dc3e
00000290: 20a4 47bd f7c9 c0be f1be 253c 92ef 94be
000002a0: 3241 d2be 7a68 703d e1cc 01bf 8c28 83bc
000002b0: 2745 933e a7ae 6ebe 7ced 10bf 6d22 083f
000002c0: 63ba a83b ae31 64bc 35da 8ebb 5d84 ccbd
000002d0: 1acc 643d 05ff f23d 43e1 113d 4c55 183e
000002e0: dd91 07bd 95fd dbbc 383c 16bb 22ec 8dbd
000002f0: 6b62 9dbd 4190 113e 44fb 22bf d356 a03b
00000300: a42b 5dbe 92d1 2bbf 740d 1b3e 4e94 61bc
00000310: a661 7cbc 5f87 00bf d2d2 ebbe 797c b73e
00000320: 902c fa3c 2b01 1bbe 1d96 abbe c1a0 8bbe
00000330: 52a2 6abd 6e18 29be 6282 0ebb 743a 053d
00000340: 17b0 c1bc 90f4 273e 8adf 7ebe 9b8e 433d
00000350: 157e 353f 2a02 debe 0eb3 74bd 63df f4be
00000360: 5fb7 5abd 907e 27be 462f adbe 07ad 44be
00000370: 4757 7d3d 2fd4 38be ff8a 0fbf 165e eabc
00000380: 67d8 51bd c3c9 9bbd ce2b 39be 5e85 f93e
00000390: 598f d5be 3d70 773d ce69 0bbe 290f 813d
000003a0: 6f9c 01be 6a97 8fbe 06bd e0bd 6e78 913e
000003b0: 9321 e4be 6887 afbe dc4e ae3e ac84 773e
000003c0: faab 433d 2bcf 8fbe afcc 46be cb13 ce3d
000003d0: 93e9 c4bd b00a fbbd cb6e 963e 53a1 88bd
000003e0: fa16 06be 7a2b 593e 70d5 7a3d acb6 a53c
000003f0: af95 a03c b18b 143e 8938 81bd 6450 9fbd

ss.9.bias f4 [84]
-0.7537438 0.10555796 -0.05043923 0.11261121 0.24721146 0.219863 -0.26339552 0.039170258
-0.24476196 -0.03564752 0.10701988 -0.47922507 -0.053137183 0.19675674 -0.10776513 0.38160262
-0.017918132 0.2912727 -0.31037095 0.20011167 -0.09121844 -0.5119375 -0.27885625 -0.08702506
-0.45630816 -0.26468042 -0.10017369 -0.3169405 0.39370888 -0.06844564 0.047751337 0.023590203
0.13781036 0.38490003 -0.27092046 0.4421849 0.38966203 0.45123583 -0.06015698 -0.4846832
-0.47592854 0.073760316 -0.77155375 0.3706052 -0.06228352 0.06472302 0.24610195 0.49746364
-0.30684677 0.24561886 -0.5254993 -0.34853348 -0.36889488 0.10004783 -0.23201478 0.10636248
-0.34106982 -0.28335157 -0.098576434 0.34560606 -0.2530877 -0.5481685 0.14700158 -0.110430636
0.27199128 -0.2984166 0.12419894 -0.047208354 0.46605316 -0.20076315 0.08861385 -0.49495044
0.1264487 -0.31185064 0.119411215 -0.27160436 -0.2065071 -0.5219923 0.21512288 -0.17600954
-0.085457355 0.15385845 0.3240961 -0.21177301
00000000: 5bf5 40bf c62e d83d 5e99 4ebd b5a0 e63d
00000010: 0025 7d3e c423 613e c7db 86be fe70 203d
00000020: e1a2 7abe 2203 12bd 3d2d db3d fd5c f5be
00000030: 60a6 59bd 997a 493e f7b3 dcbd 6b61 c33e
00000040: 0cc9 92bc b221 953e f1e8 9ebe 13ea 4c3e
00000050: bcd0 babd 560e 03bf 3fc6 8ebe 323a b2bd
00000060: 39a1 e9be 3184 87be dd27 cdbd 0646 a2be
00000070: 3694 c93e 3a2d 8cbd e896 433d 3e40 c13c
00000080: 291e 0d3e 9e11 c53e 16b6 8abe 0f66 e23e
00000090: c881 c73e 6208 e73e 2a67 76bd 6528 f8be
000000a0: e8ac f3be a60f 973d 8c84 45bf f7bf bd3e
000000b0: 011d 7fbd 818d 843d 2602 7c3e 8eb3 fe3e
000000c0: 051b 9dbe 8383 7b3e 1f87 06bf fb72 b2be
000000d0: cadf bcbe e0e5 cc3d 4895 6dbe 92d4 d93d
000000e0: b4a0 aebe 7513 91be 71e2 c9bd 47f3 b03e
000000f0: b694 81be c554 0cbf 9587 163e 7529 e2bd
00000100: 7142 8b3e 10ca 98be 045c fe3d 8c5d 41bd
00000110: 859e ee3e db94 4dbe 2e7b b53d 256a fdbe
00000120: c57b 013e e3aa 9fbe de8d f43d ba0f 8bbe
00000130: 9976 53be 4aa1 05bf 2c49 5c3e d83b 34be
00000140: 4404 afbd 128d 1d3e edef a53e 06db 58be

ss.11.weight f4 [10, 84]
-0.0969147 0.35279804 0.26243615 0.06328303 -0.078065075 -0.026739892 -0.029833933 -0.6215729
-0.42841357 -0.0867149 0.23467253 -0.047017172 -0.0015522828 0.13445902 -0.18835093 -0.31867114
-0.055880267 -0.26086223 0.2402985 -0.4497801 -0.33951542 -0.011824603 -0.36862412 0.04729894
-0.46742648 0.13714615 0.19569127 0.08667261 0.20024364 0.0959454 -0.12350262 -0.4214435
-0.28662458 0.20743199 0.09556575 -0.29551327 0.27270326 -0.0937498 0.17144799 -0.028073756
0.06645689 -0.16115524 -0.16729227 -0.45186836 0.13644029 0.032468993 0.14537038 -0.38284647
-0.4746814 0.15726131 -0.076570615 0.17024212 0.17717704 -0.29543796 0.14723822 -0.2316062
-0.38749164 -0.11229949 0.11497016 0.047882896 -0.1260841 -0.08530436 0.14886259 -0.26001823
-0.5729439 0.03209301 -0.08610286 -0.094464205 -0.043792497 0.06433971 -0.106304534 0.15020722
-0.15633486 -0.18542805 -0.38434938 0.2853515 0.12259695 -0.037980523 -0.29704165 -0.34808356
0.007140775 -0.58933794 -0.015919538 -0.15127046 0.04334313 0.06158284 0.022090752 -0.4878143
0.115211725 -0.21226195 -0.13279459 -0.51229435 -0.30627972 -0.2201576 -0.4058215 -0.47529426
-0.15882938 -0.27817196 -0.11901488 -0.49397886 0.0012059961 -0.076654494 -0.01750143 0.20738176
-0.24600677 -0.13397509 -0.13306415 -0.3296837 0.12868012 -0.47823215 0.14820956 -0.08157405
-0.09979043 0.15822004 0.18965176 0.054162588 0.03812296 0.271491 0.096098855 0.18407843
-0.056618772 -0.1274872 0.46371305 -0.48390058 -0.19981426 -0.08263479 0.0036775332 -0.46193066
-0.26132038 -0.40630373 -0.4428958 0.2832945 -0.24605234 -0.18679757 0.015116959 -0.10372412
-0.39016876 0.086305335 -0.012140283 0.26537764 -0.36711204 -0.21410894 -0.3556333 -0.45228094
-0.049164027 -0.35235658 -0.4645002 -0.24695545 -0.060695812 -0.04628445 0.11905788 -0.30757347
0.14766462 -0.28952533 -0.0341614 -0.47485957 0.20516604 0.24865575 -0.21694621 -0.31714126
-0.21642806 0.010530151 -0.39857963 0.25849456 0.036929756 -0.094182946 -0.023816036 -0.54214984
-0.43833083 -0.20240423 0.0040551783 -0.26576898 0.06788836 -0.010850584 -0.43719357 -0.2526854
-0.46924883 -0.17462881 -0.14465919 -0.36628124 -0.35717726 -0.32397896 0.22387698 -0.46086982
0.055927522 0.05440279 -0.07902682 0.054995775 0.00074024027 -0.0074075786 -0.22192618 -0.22345036
0.22396791 -0.3560081 -0.1616193 -0.30914953 -0.43126118 -0.35659847 -0.33990306 -0.29689005
-0.260165 -0.114139974 -0.59394413 0.23886971 -0.12972766 -0.25622615 -0.37515953 -0.88805395
-0.3119607 0.20565292 0.019107435 -0.07065872 -0.05090429 0.3162143 -0.5591433 0.13306896
-0.4136052 0.16098522 -0.031743187 -0.05688881 -0.18303268 0.08788001 -0.330564 0.060176183
-0.22459193 -0.198382 -0.09672221 0.005553163 -0.10390593 0.020236012 0.27737957 0.047443405
0.2946824 0.16444907 -0.0036049348 -0.30956292 0.16944455 -0.42008337 0.0974489 -0.067706786
-0.2937462 -0.15261789 0.11494163 -0.35887593 -0.29241186 -0.43221325 0.36866474 -0.070438914
-0.0798353 0.33463582 0.11664258 -0.28298455 -0.18882142 -0.10004115 0.13742553 0.18277818
00000000: 377b c6bd f2a1 b43e 085e 863e 899a 813d
00000010: 95e0 9fbd 9e0d dbbc 4b66 f4bc 671f 1fbf
00000020: 0659 dbbe 9597 b1bd ff4d 703e 1495 40bd
00000030: f875 cbba a0af 093e 11df 40be dd28 a3be
00000040: b5e2 64bd bc8f 85be cf10 763e 9449 e6be
00000050: f7d4 adbe fbbb 41bc 4dbc bcbe 89bc 413d
00000060: 8652 efbe 0a70 0c3e 4b63 483e 6981 b13d
00000070: ab0c 4d3e 067f c43d f1ee fcbd 71c7 d7be
00000080: 75c0 92be 0d69 543e fab7 c33d 844d 97be
00000090: c39f 8b3e e5ff bfbd 1090 2f3e effa e5bc
000000a0: 8d1a 883d e105 25be aa4e 2bbe 4a5b e7be
000000b0: 01b7 0b3e 35fe 043d f9db 143e 7404 c4be
000000c0: 7109 f3be 1c09 213e 0ed1 9cbd f353 2e3e
000000d0: e66d 353e a543 97be 9ec5 163e 2d2a 6dbe
000000e0: 4e65 c6be 46fd e5bd 7a75 eb3d db20 443d
000000f0: 311c 01be 0db4 aebd 6f6f 183e 1c21 85be
00000100: 74ac 12bf f673 033d b256 b0bd 7376 c1bd
00000110: c35f 33bd 8ac4 833d 31b6 d9bd eccf 193e
00000120: 3f16 20be dae0 3dbe 71c9 c4be 9819 923e
00000130: 1c14 fb3d 7791 1bbd d815 98be 0238 b2be
00000140: 2afd e93b dade 16bf b169 82bc a5e6 1abe
00000150: 9188 313d 4a3e 7c3d aaf7 b43c ccc2 f9be
00000160: 20f4 eb3d 325b 59be 4efb 07be b925 03bf
00000170: b2d0 9cbe fe70 61be d6c7 cfbe c559 f3be
00000180: 2ba4 22be 8e6c 8ebe 13be f3bd ccea fcbe
00000190: 8412 9e3a 08fd 9cbd 295f 8fbc e25b 543e
000001a0: 33e9 7bbe c430 09be f841 08be 4dcc a8be
000001b0: b9c4 033e d8da f4be 3fc4 173e 4c10 a7bd
000001c0: ed5e ccbd 6f04 223e 1234 423e 97d9 5d3d
000001d0: d226 1c3d de00 8b3e 7acf c43d 0e7f 3c3e
000001e0: 16e9 67bd 018c 02be cc6b ed3e d1c1 f7be
000001f0: 1c9c 4cbe 6e3c a9bd c502 713b 2d82 ecbe
00000200: c9cb 85be 0b07 d0be 3dc3 e2be fa0b 913e
00000210: 25f5 7bbe dd47 3fbe 1fad 773c 506d d4bd
00000220: 33c4 c7be dac0 b03d 0ae8 46bc 94df 873e
00000230: 1cf6 bbbe 603f 5bbe 9115 b6be 5e91 e7be
00000240: 3860 49bd 1568 b4be f8d2 edbe e4e1 7cbe
00000250: 2c9c 78bd c394 3dbd 9ed4 f33d 457a 9dbe
00000260: 6535 173e aa3c 94be d3ec 0bbd cb20 f3be
00000270: 0c17 523e 9d9f 7e3e 2627 5ebe 5760 a2be
00000280: 519f 5dbe a886 2c3c a112 ccbe 6659 843e
00000290: a843 173d fde2 c0bd d919 c3bc 55ca 0abf
000002a0: e66c e0be 0e43 4fbe 4de1 843b df12 88be
000002b0: 0d09 8b3d a6c6 31bc d6d7 dfbe fb5f 81be
000002c0: 6241 f0be e5d1 32be 8a21 14be 3789 bbbe
000002d0: f0df b6be 92e0 a5be 0240 653e 21f7 ebbe
000002e0: 4214 653d 76d5 5e3d d0d8 a1bd 4043 613d
000002f0: af0c 423a 46bb f2bb 9e40 63be 2cd0 64be
00000300: d857 653e b246 b6be 887f 25be d948 9ebe
00000310: 44ce dcbe 1394 b6be c607 aebe f901 98be
00000320: 5934 85be 38c2 e9bd b90c 18bf 439a 743e
00000330: 54d7 04be 1330 83be e914 c0be 8157 63bf
00000340: 50b9 9fbe ae96 523e 3287 9c3c 85b5 90bd
00000350: 0481 50bd d7e6 a13e 0424 0fbf 3b43 083e
00000360: 10c4 d3be 4fd9 243e 2505 02bd 3e04 69bd
00000370: eb6c 3bbe 6ffa b33d af3f a9be 4d7b 763d
00000380: 6dfb 65be a724 4bbe 4b16 c6bd 4ff7 b53b
00000390: a2cc d4bd fec5 a53c b204 8e3e 0454 423d
000003a0: 9de0 963e 5665 283e c540 6cbb 087f 9ebe
000003b0: df82 2d3e 2b15 d7be 4a93 c73d dba9 8abd
000003c0: e765 96be dd47 1cbe 8466 eb3d 96be b7be
000003d0: 02b7 95be 0e4b ddbe a0c1 bc3e 4742 90bd
000003e0: b180 a3bd 6355 ab3e 4ee2 ee3d 5ae3 90be
000003f0: 675a 41be 60e2 ccbd 47b9 0c3e 342a 3b3e

ss.11.bias f4 [10]
-0.12106951 0.05719391 0.24231431 -0.03591624 -0.17286514 -0.33798355 0.14706916 0.16865243
-0.07599561 0.048254166
00000000: 4bf3 f7bd 2944 6a3d 3e21 783e e81c 13bd
00000010: 8f03 31be 2e0c adbe 4c99 163e 39b3 2c3e
00000020: 96a3 9bbd 29a6 453d

exp_avg f4 [6, 1, 5, 5]
0.0023880256 0.0067000035 0.0053064544 0.0069042756 0.0041485974 0.0016070079 0.0041506677 0.0025246094
0.0047902786 0.0031446582 -0.00058632414 -0.00066359364 -0.0019124846 0.00043076856 -0.00050517614 0.0037094913
0.0023979617 0.00038900136 0.003835059 0.0057624457 0.0066641397 0.0076665976 0.007795982 0.012981163
0.014211246 0.0009588549 0.0024248336 -9.2459035e-05 -0.003027149 -0.0039704265 0.0016742351 0.0022998017
-0.00012014031 -0.0026420779 -0.0036999101 0.0026901972 0.0029740145 0.00067039015 -0.00091039867 -0.0027001423
0.002077226 0.002050204 0.0007828094 0.00022015277 -0.00063402293 -0.0006857678 5.9522868e-06 0.0001637144
-0.0012103209 -0.0004949994 -0.01157771 -0.004449213 -0.001991183 -0.0030790134 -0.0025377856 -0.009518808
-0.0014313227 0.0007751619 -0.0033173715 -0.0052483836 -0.0046835532 -0.00031032052 -0.00018313747 -0.003993382
-0.006624769 0.00087095704 0.002709772 -8.396158e-06 -0.004904134 -0.008529544 0.005649126 0.005437013
0.0002190016 -0.006611649 -0.011106002 -0.0022854365 -0.0005035059 0.0018109371 0.006747146 0.008534853
-0.00046612986 -0.00037050154 0.00019618149 0.0027219357 0.0010496484 -0.00090499246 -0.0014316217 -0.0003113943
0.00093084056 -1.7579903e-05 0.0035702286 0.003675611 0.0035521032 0.0056621265 0.0037934412 0.009580313
0.010093466 0.0083253505 0.007036621 0.002426823 0.012241821 0.0035281363 2.414441e-05 0.0017069408
0.0058861184 0.013302564 0.006944104 0.0030572154 0.0029420762 0.0048756655 0.015149463 0.008424123
0.0027870128 0.0013790375 0.002641467 0.010302248 0.00458368 -0.0013088515 0.0007019986 -0.00025639212
0.009697854 0.007296082 0.0022735763 0.0023229795 -0.00014957097 -0.0036356747 -0.0012969379 0.00059059914
0.0043663033 0.004993725 -0.001484361 7.358022e-07 0.0014058788 0.0029861021 0.0016023571 0.0035472838
0.0021460375 0.0012433983 -0.0010219146 -0.0035635321 0.010595985 0.009297023 0.004946019 7.821479e-05
-0.004602834 0.0169962 0.013314721 0.005816312 -0.0010027091 -0.005672427
00000000: 6c80 1c3b b48b db3b c4e1 ad3b 433d e23b
00000010: f5f0 873b 3da2 d23a 5302 883b eb73 253b
00000020: c5f7 9c3b 9c16 4e3b 8cb3 19ba 04f5 2dba
00000030: 56ac faba c7d8 e139 cc6d 04ba f01a 733b
00000040: 1f27 1d3b e1f2 cb39 9d55 7b3b e6d2 bc3b
00000050: db5e da3b 1538 fb3b 7075 ff3b f2ae 543c
00000060: 49d6 683c aa5b 7b3a f5e9 1e3b 91e6 c1b8
00000070: 2263 46bb 5a1a 82bb 0272 db3a 45b8 163b
00000080: d6f3 fbb8 b626 2dbb 317a 72bb 054e 303b
00000090: afe7 423b 1fbd 2f3a d2a7 6eba dff4 30bb
000000a0: 1222 083b b75c 063b 7335 4d3a cfd8 6639
000000b0: 8f34 26ba 19c5 33ba c1b9 c736 c0aa 2b39
000000c0: a1a3 9eba d9c2 01ba 6fb0 3dbc b4ca 91bb
000000d0: 827e 02bb 46c9 49bb fa50 26bb c6f4 1bbc
000000e0: 389b bbba 3c34 4b3a 4268 59bb a2fa abbb
000000f0: 7e78 99bb 84b2 a2b9 9708 40b9 ebda 82bb
00000100: 9714 d9bb f050 643a 6e96 313b 39dd 0cb7
00000110: dcb2 a0bb 80bf 0bbc 4e1c b93b f928 b23b
00000120: cba3 6539 88a6 d8bb f3f5 35bc 43c7 15bb
00000130: b5fd 03ba f75c ed3a 2a17 dd3b c5d5 0b3c
00000140: e462 f4b9 e03f c2b9 11b6 4d39 8162 323b
00000150: 5b94 893a 043d 6dba 41a5 bbba a342 a3b9
00000160: a703 743a 8e78 93b7 7ffa 693b 85e2 703b
00000170: 67ca 683b 5c89 b93b 629b 783b bff6 1c3c
00000180: 115f 253c 0d67 083c 7593 e63b 550b 1f3b
00000190: eb91 483c 4e38 673b ba89 ca37 6ebb df3a
000001a0: 57e0 c03b fff2 593c 5e8b e33b 905b 483b
000001b0: d9cf 403b 0cc4 9f3b 7435 783c 5505 0a3c
000001c0: 51a6 363b d2c0 b43a 761c 2d3b c3ca 283c
000001d0: b232 963b c58d abba 5406 383a 5e6c 86b9
000001e0: bfe3 1e3c f913 ef3b 4800 153b 213d 183b
000001f0: 27d6 1cb9 8044 6ebb 04fe a9ba 70d2 1a3a
00000200: 3513 8f3b 67a2 a33b e48e c2ba f183 4535
00000210: 7745 b83a 7bb2 433b 2f06 d23a 8c79 683b
00000220: 89a4 0c3b 86f9 a23a c4f1 85ba 268a 69bb
00000230: c89a 2d3c 8a52 183c 3712 a23b 3f07 a438
00000240: 5fd3 96bb 9d3b 8b3c fd25 5a3c c396 be3b
00000250: 566d 83ba c4df b9bb

exp_avg_sq f4 [6, 1, 5, 5]
0.00020698262 0.00019109745 0.00037432986 0.0006289169 0.00074300077 7.6539865e-05 9.239102e-05 0.0002766558
0.000578045 0.0007620827 0.00011179553 0.00015589882 0.00033581228 0.0005880752 0.0007718817 0.00030525363
0.0003344285 0.00048294544 0.00062285643 0.0007390136 0.00066509197 0.0005816178 0.00057839166 0.00064131356
0.000702258 8.302266e-05 0.00010698174 0.00018366361 0.00027532526 0.00029156756 0.00012129473 0.00015921665
0.00022174383 0.00023508124 0.00020682978 0.00012756008 0.00014798253 0.000195609 0.00019507391 0.00017577698
7.7012315e-05 9.48033e-05 0.00013637186 0.00016137086 0.00016532895 5.1804454e-05 7.1047696e-05 9.783793e-05
0.00012903425 0.0001493451 0.0011015314 0.0012664364 0.0010194939 0.0004206655 0.00015392905 0.0009387405
0.0011535065 0.0010642414 0.0004463246 0.00016695811 0.00069985626 0.0010514539 0.0011777917 0.00061596424
0.0002756336 0.00048600207 0.0008522316 0.0011969053 0.0008664673 0.00048827397 0.0003939023 0.00073148723
0.0010413772 0.00092209264 0.0006862841 0.00013404619 0.00013807384 0.00037204672 0.0007282707 0.00086067955
0.00020115355 0.00023488651 0.000526289 0.0007405944 0.0006612313 0.00043322836 0.0004634644 0.00069041515
0.0007211157 0.0006651504 0.0008541044 0.0007869372 0.0008222867 0.00077936077 0.0008270474 0.0011720285
0.00090000936 0.00073650305 0.0006779051 0.00079135754 0.0010144023 0.0012697997 0.0015351663 0.0013079136
0.0009951976 0.001185328 0.0013951007 0.0014072743 0.0009491694 0.0006052369 0.0012967868 0.0013084025
0.000989607 0.00042490987 0.00019581521 0.0011594514 0.0010839596 0.0005585226 0.00010277387 3.2134038e-05
0.0009589656 0.0008748317 0.00038832147 6.06568e-05 5.346936e-05 0.0006812563 0.00064434996 0.0005577291
0.0005374994 0.0006835298 0.0008152003 0.00078228296 0.0006509039 0.0006134186 0.0007898909 0.0009171827
0.0009343158 0.0008418948 0.00086651294 0.0011014347 0.0010187932 0.0010704353 0.0010766018 0.0011941144
0.0014825239 0.001152228 0.00114057 0.0011693034 0.0013947927 0.0016825177
00000000: 7909 5939 5561 4839 b441 c439 e6dd 243a
00000010: f0c5 423a 0784 a038 0dc2 c138 1d0c 9139
00000020: f187 173a 81c6 473a c573 ea38 c578 2339
00000030: f60f b039 0f29 1a3a 1b58 4a3a 730a a039
00000040: 3c56 af39 d733 fd39 3047 233a 5dba 413a
00000050: 9159 2e3a b677 183a 359f 173a d31d 283a
00000060: bd17 383a 741c ae38 625b e038 d395 4039
00000070: 8859 9039 89dd 9839 9d5f fe38 65f3 2639
00000080: e883 6839 2480 7639 72e0 5839 a6c1 0539
00000090: c22b 1b39 641c 4d39 c18c 4c39 c650 3839
000000a0: ac81 a138 22d1 c638 0bff 0e39 a935 2939
000000b0: 275c 2d39 9c48 5938 71ff 9438 572e cd38
000000c0: 5e4d 0739 8599 1c39 4361 903a 8efe a53a
000000d0: 8aa0 853a c58c dc39 0468 2139 cf15 763a
000000e0: 4131 973a 047e 8b3a ac00 ea39 7a11 2f39
000000f0: 8f76 373a f0d0 893a 2260 9a3a a978 213a
00000100: ea82 9039 18ce fe39 4b68 5f3a 7ae1 9c3a
00000110: a323 633a 06ff ff39 ac84 ce39 47c1 3f3a
00000120: d27e 883a 97b8 713a bfe7 333a c08e 0c39
00000130: eac7 1039 440f c339 6be9 3e3a 3a9f 613a
00000140: bfec 5239 de4b 7639 a8f6 093a 7324 423a
00000150: 7b56 2d3a ed22 e339 24fd f239 fafc 343a
00000160: 4109 3d3a 7d5d 2e3a fae5 5f3a 764a 4e3a
00000170: ba8e 573a 044e 4c3a 36ce 583a c09e 993a
00000180: 9bee 6b3a e211 413a 71b5 313a 1b73 4f3a
00000190: b1f5 843a 686f a63a a237 c93a 4c6e ab3a
000001a0: 4a71 823a 025d 9b3a d0db b63a 4a74 b83a
000001b0: aed1 783a c3a8 1e3a f2f8 a93a b47e ab3a
000001c0: b3b5 813a 70c6 de39 bf53 4d39 bcf8 973a
000001d0: a613 8e3a d169 123a 4d88 d738 a9c7 0638
000001e0: 1863 7b3a f654 653a a097 cb39 be69 7e38
000001f0: 4a44 6038 5696 323a 98e9 283a 9134 123a
00000200: f9e6 0c3a e92e 333a 2bb3 553a 1f12 4d3a
00000210: 6ca1 2a3a d3cd 203a ae10 4f3a 176f 703a
00000220: dfec 743a 9bb2 5c3a b326 633a 045e 903a
00000230: 0789 853a d94d 8c3a c31c 8d3a d583 9c3a
00000240: 3f51 c23a 5b06 973a 2e7f 953a 5043 993a
00000250: 7ad1 b63a ed87 dc3a

exp_avg f4 [6]
-0.0033401428 0.004636621 -0.0068880073 0.0082590915 0.023655595 0.004855439
00000000: 4ce6 5abb ccee 973b cbb4 e1bb 2451 073c
00000010: 61c9 c13c 601a 9f3b

exp_avg_sq f4 [6]
0.0024247568 0.0005670377 0.0033051316 0.0029962903 0.0072276006 0.0039185374
00000000: abe8 1e3b 42a5 143a e89a 583b 695d 443b
00000010: 82d5 ec3b 1367 803b

exp_avg f4 [16, 6, 5, 5]
0.00089456025 -0.00019995582 0.0013401434 0.0021356842 0.0014764777 0.000110172994 0.00034515743 0.0032486366
0.0031930765 0.0005548107 -4.369843e-05 -6.835492e-06 0.0036055774 0.0015366611 -0.00045594288 0.00056030956
0.0006609648 0.003473347 0.00033474396 -0.00036863392 0.0013920878 0.0029253552 0.0035941554 -0.0006313023
-0.00040256346 0.00061103323 0.00043849772 0.00014256877 0.00036038648 0.00037538342 -7.21402e-05 -2.847214e-05
7.890253e-05 0.0004966951 0.0005821118 -5.6476332e-05 -4.276871e-05 5.397761e-05 -3.5342655e-05 -0.00023703981
-3.3070057e-05 0.00017385722 0.00016622434 -0.00036625075 -0.00010058465 1.38252e-05 0.00039736056 0.00046095034
-0.00039698923 -0.00024130518 -0.00068266527 0.00022548868 0.00039567394 0.0017601505 0.0033398492 -0.00029324816
-4.585817e-05 0.00017699611 0.0031244226 0.0032498313 -0.00012286085 0.00015866743 0.00010127015 0.0029403085
0.002078243 -0.0002771323 0.00056148926 0.00019492272 0.002856017 0.0011498618 -0.00033806334 -0.000100163044
0.00070371374 0.0023320608 0.0010806192 9.822137e-05 4.3131007e-05 0.00017290736 0.00071585894 0.001599757
-2.2381118e-05 -0.00017224926 0.00013799134 0.00058979075 -0.000104357576 -0.000137915 2.5618789e-05 0.0002061153
0.001056981 -0.000708731 0.0003035165 0.00072771095 0.0024180454 0.002474212 0.0003305396 0.0003911783
0.0016610279 0.0034264792 0.002136665 0.0004097375 0.0019389769 0.0013645899 0.00031487257 0.00082483387
0.0031570543 -0.0003920487 9.170881e-05 -6.2445695e-05 0.0014487983 0.0056487857 -0.00017868112 -0.00010145003
-0.00013380148 0.0027156335 0.0047165146 -0.0005259727 -0.00035925955 0.0002552715 0.0027760456 0.0039787022
-0.00025261808 -5.0110877e-05 0.000650396 0.0031122642 0.0033139254 -0.00013196559 -1.2960933e-05 0.0001794101
0.0007075901 0.00027432656 -6.6331864e-05 -7.9126075e-05 -0.00018087105 -0.00048464278 -0.0019320404 -0.0001446586
0.00027314204 0.00017194056 -0.0009363744 -0.0018820007 0.0006877684 0.0020538152 0.0022308796 0.0012988397
0.00033322474 0.0016935064 0.0029414513 0.0029868237 0.0021426545 0.0013767042 0.001168921 0.0014913594
0.0003153686 -0.0014451405 -0.0004781137 0.0013194279 -0.0012194406 -0.00036270503 -0.00063260744 -0.00027038687
-0.00035561319 -0.0021696377 -0.003166632 6.440884e-05 0.0005350201 -0.0012655417 0.0009592112 -0.0016834156
0.00044250523 0.000244126 -0.00014769344 0.00084298296 -0.0036510534 0.00054342713 0.0003210352 3.207538e-05
0.00033287186 0.00044504553 4.9220245e-05 -0.00035574072 0.0004336937 0.00030331317 2.440224e-05 -7.263541e-05
-0.00027907098 3.9370243e-05 0.00014232846 0.00023447361 9.248933e-05 -0.00018170454 -0.0005459498 -0.00064637343
-0.0011131816 -0.00026181445 0.00020287343 -0.0002719063 0.0006463495 -0.0001059359 2.7199521e-05 0.00011245661
-0.000302132 -0.0017707905 -0.0020543495 0.00034360256 -7.5951146e-05 -0.0002109306 -0.0012319161 -0.0026156213
-0.0017942062 0.00048648787 -0.0008801637 0.0011883789 -0.00027053873 -0.0011875707 0.0008165042 -0.0014177953
0.0010107349 0.0010489327 -0.0016138982 0.0010076313 -0.0013567482 0.0004954611 0.0031382842 -0.0011958982
0.0012357141 -0.0015647215 -0.001997094 -0.0024562438 -0.0012744049 -0.0015410283 0.0010430799 0.00020087024
-0.00028091134 -0.00069573964 -0.003121598 0.00055550446 -0.0015210081 -3.126351e-05 0.00011972424 -4.721608e-05
8.1157e-05 0.0010861424 -9.452288e-05 0.00036854466 -4.534009e-05 0.00039182339 0.0013721467 0.0006977829
0.00022675698 -4.26968e-06 -0.00014631519 0.0004570824 0.0030498644 0.0033616906 6.4976964e-05 -0.0014489259
00000000: ec80 6a3a 3bab 51b9 c0a7 af3a d6f6 0b3b
00000010: 5f86 c13a ad0c e738 3ff6 b439 14e7 543b
00000020: ef42 513b b770 113a d548 37b8 6e5c e5b6
00000030: 8d4b 6c3b ca69 c93a 9e0b efb9 bde1 123a
00000040: 9944 2d3a 18a1 633b 9380 af39 3545 c1b9
00000050: b776 b63a 51b7 3f3b ec8b 6b3b fb7d 25ba
00000060: 270f d3b9 bf2d 203a 2be6 e539 837e 1539
00000070: 41f2 bc39 1ccf c439 fa49 97b8 74d7 eeb7
00000080: 7978 a538 a534 023a dd98 183a 00e1 6cb8
00000090: 8d62 33b8 0466 6238 e33c 14b8 e48d 78b9
000000a0: b4b4 0ab8 714d 3639 824c 2e39 5805 c0b9
000000b0: f9f0 d2b8 c8f2 6737 d554 d039 b5ab f139
000000c0: fe22 d0b9 de06 7db9 e4f4 32ba 2871 6c39
000000d0: 7572 cf39 dab4 e63a 5fe1 5a3b 1abf 99b9
000000e0: d657 40b8 0898 3939 1dc3 4c3b 1ffb 543b
000000f0: 35d4 00b9 f75f 2639 ff60 d438 31b2 403b
00000100: 2233 083b 114c 91b9 e830 133a 2b64 4c39
00000110: 042c 3b3b f6b6 963a 183e b1b9 a00e d2b8
00000120: 6e79 383a 7dd5 183b 90a3 8d3a 32fc cd38
00000130: 91e7 3438 774e 3539 7ba8 3b3a f0ae d13a
00000140: 16bf bbb7 cf9d 34b9 c5b1 1039 309c 1a3a
00000150: 8cda dab8 479d 10b9 eee7 d637 a820 5839
00000160: 668a 8a3a 22ca 39ba 4c21 9f39 dbc3 3e3a
00000170: 1278 1e3b 6426 223b 464c ad39 1017 cd39
00000180: d9b6 d93a c88e 603b 4a07 0c3b 09d2 d639
00000190: 4525 fe3a 0adc b23a 7b15 a539 aa39 583a
000001a0: 95e6 4e3b e38b cdb9 cb53 c038 47f5 82b8
000001b0: 9be5 bd3a 7319 b93b 595c 3bb9 92c1 d4b8
000001c0: 104d 0cb9 c5f8 313b fe8c 9a3b 6ee1 09ba
000001d0: 005b bcb9 f6d5 8539 51ee 353b c65f 823b
000001e0: d371 84b9 252e 52b8 567f 2a3a 21f7 4b3b
000001f0: 712e 593b 3e60 0ab9 c972 59b7 0820 3c39
00000200: 917d 393a 7dd3 8f39 a61b 8bb8 7df0 a5b8
00000210: 34a8 3db9 a717 feb9 853c fdba 7faf 17b9
00000220: 8134 8f39 f14a 3439 0677 75ba 77ad f6ba
00000230: 5b4b 343a 4d99 063b f333 123b d43d aa3a
00000240: abb4 ae39 a5f8 dd3a 5dc5 403b 96be 433b
00000250: c76b 0c3b 8772 b43a 7b36 993a b879 c33a
00000260: 0f58 a539 de6a bdba 56ab fab9 a7f0 ac3a
00000270: a3d5 9fba 7229 beb9 91d5 25ba b6c2 8db9
00000280: 9871 bab9 7b30 0ebb 4587 4fbb 3c13 8738
00000290: 9740 0c3a 88e0 a5ba 9373 7b3a 0ea6 dcba
000002a0: 0c00 e839 13fc 7f39 28de 1ab9 a1fb 5c3a
000002b0: 8346 6fbb c774 0e3a 9d50 a839 ad88 0638
000002c0: 4e85 ae39 0055 e939 d671 4e38 b682 bab9
000002d0: 6261 e339 0106 9f39 69b3 cc37 d753 98b8
000002e0: 4650 92b9 7a21 2538 013e 1539 08dd 7539
000002f0: d5f6 c138 f187 3eb9 121e 0fba 6371 29ba
00000300: 2de8 91ba 2444 89b9 6cba 5439 a58e 8eb9
00000310: c86f 293a e729 deb8 872a e437 afd6 eb38
00000320: 7867 9eb9 df19 e8ba 44a2 06bb 8e25 b439
00000330: f647 9fb8 402d 5db9 3f78 a1ba d86a 2bbb
00000340: 922b ebba 4c0f ff39 c9ba 66ba 61c3 9b3a
00000350: 18d7 8db9 43a8 9bba ab0a 563a 51d5 b9ba
00000360: a37a 843a 577c 893a 7089 d3ba 7f12 843a
00000370: ead4 b1ba d5e1 013a acab 4d3b afbf 9cba
00000380: aff7 a13a 5717 cdba ade1 02bb eff8 20bb
00000390: ef09 a7ba 54fc c9ba f4b7 883a b2a0 5239
000003a0: 4847 93b9 4c62 36ba b993 4cbb 469f 113a
000003b0: 905c c7ba f020 03b8 7614 fb38 e109 46b8
000003c0: d532 aa38 e45c 8e3a 963a c6b8 3a39 c139
000003d0: 8d2b 3eb8 a56d cd39 9ad9 b33a 6beb 363a
000003e0: 9dc5 6d39 4644 8fb6 2f6c 19b9 90a4 ef39
000003f0: 3ce0 473b cf4f 5c3b 3e44 8838 e3e9 bdba
